…
 2079.30it/s]100%|â–ˆâ–ˆâ–ˆâ–ˆâ–ˆâ–ˆâ–ˆâ–ˆâ–ˆâ–ˆ| 2708/2708 [00:01<00:00, 2073.26it/s]
/users/Min/HG/src_new/hgnn_cvae_pretrain_allset.py:268: UserWarning: To copy construct from a tensor, it is recommended to use sourceTensor.clone().detach() or sourceTensor.clone().detach().requires_grad_(True), rather than torch.tensor(sourceTensor).
  cvae_features = torch.tensor(features, dtype=torch.float32)
model:
 SetGNN(
  (V2EConvs): ModuleList(
    (0): HalfNLHconv()
    (1): HalfNLHconv()
  )
  (E2VConvs): ModuleList(
    (0): HalfNLHconv()
    (1): HalfNLHconv()
  )
  (bnV2Es): ModuleList(
    (0): BatchNorm1d(8, eps=1e-05, momentum=0.1, affine=True, track_running_stats=True)
    (1): BatchNorm1d(8, eps=1e-05, momentum=0.1, affine=True, track_running_stats=True)
  )
  (bnE2Vs): ModuleList(
    (0): BatchNorm1d(8, eps=1e-05, momentum=0.1, affine=True, track_running_stats=True)
    (1): BatchNorm1d(8, eps=1e-05, momentum=0.1, affine=True, track_running_stats=True)
  )
  (classifier): MLP(
    (lins): ModuleList(
      (0): Linear(in_features=8, out_features=64, bias=True)
      (1): Linear(in_features=64, out_features=64, bias=True)
      (2): Linear(in_features=64, out_features=64, bias=True)
      (3): Linear(in_features=64, out_features=64, bias=True)
      (4): Linear(in_features=64, out_features=64, bias=True)
      (5): Linear(in_features=64, out_features=64, bias=True)
      (6): Linear(in_features=64, out_features=7, bias=True)
    )
    (normalizations): ModuleList(
      (0): Identity()
      (1): LayerNorm((64,), eps=1e-05, elementwise_affine=True)
      (2): LayerNorm((64,), eps=1e-05, elementwise_affine=True)
      (3): LayerNorm((64,), eps=1e-05, elementwise_affine=True)
      (4): LayerNorm((64,), eps=1e-05, elementwise_affine=True)
      (5): LayerNorm((64,), eps=1e-05, elementwise_affine=True)
      (6): LayerNorm((64,), eps=1e-05, elementwise_affine=True)
    )
  )
)
data: Data(x=[2708, 1433], edge_index=[2, 7293], y=[2708], n_x=2708, train_percent=0.01, num_hyperedges=1072, totedges=3780, num_ori_edge=4585, norm=[7293])
Run CVAE Train:   0%|          | 0/10 [00:00<?, ?it/s]
  0%|          | 0/944 [00:00<?, ?it/s][A/users/Min/miniconda/envs/hy/lib/python3.9/site-packages/torch/nn/functional.py:1967: UserWarning: nn.functional.sigmoid is deprecated. Use torch.sigmoid instead.
…
